state_dict_model.pth (torch, 358844 bytes, 31 tensors)

encoder.encoder_cnn.0.weight f4 [8, 1, 3, 3]
-0.06731278 0.004393714 -0.20391291 -0.20766784 -0.13215268 -0.008356248 0.0240685 0.16714217
0.008605478 0.048212454 -0.046015687 -0.07787683 -0.20078427 -0.2280719 -0.14766374 0.009369295
0.015791105 0.0822709 -0.12461831 -0.07697142 0.06590386 0.21607725 0.09934425 0.16219774
0.0020803385 0.20109391 0.22779469 -0.20403373 -0.12688595 -0.085400395 -0.048332464 0.10847874
-0.09949983 -0.12115456 -0.13358524 -0.18078662 -0.17950584 0.27265123 0.20695296 0.12383454
0.041972153 -0.05767265 -0.031688653 -0.24057104 -0.20635344 -0.040190786 0.25405562 0.1602644
-0.022395762 0.19313604 0.18577386 0.3081176 0.22300395 0.064669885 0.22456022 -0.042595185
0.11212005 -0.17435643 -0.09706309 -0.036273513 0.12786002 0.084988244 -0.10279852 0.15468498
0.22076339 -0.048834387 0.056983847 0.10423323 0.13290994 0.27050406 -0.16914852 -0.12567936
00000000: 48db 89bd 25f9 8f3b 8cce 50be e1a6 54be
00000010: 0853 07be a5e8 08bc 4e2b c53c 5127 2b3e
00000020: fefd 0c3c 6c7a 453d f27a 3cbd e37d 9fbd
00000030: 649a 4dbe ae8b 69be 2a35 17be ac81 193c
00000040: 595c 813c a57d a83d e237 ffbd 31a3 9dbd
00000050: 9af8 863d 5b43 5d3e 0075 cb3d 2a17 263e
00000060: 4a56 083b 90eb 4d3e 0343 693e 38ee 50be
00000070: 64ee 01be 67e6 aebd 43f8 45bd 1a2a de3d
00000080: 91c6 cbbd e21f f8bd 92ca 08be 2120 39be
00000090: 61d0 37be f198 8b3e 7aeb 533e f79c fd3d
000000a0: feea 2b3d 283a 6cbd f6cb 01bd 4158 76be
000000b0: 514e 53be 189f 24bd 9413 823e 5a1c 243e
000000c0: 5177 b7bc 74c5 453e 813b 3e3e 97c1 9d3e
000000d0: 265b 643e a571 843d 1df3 653e 4a78 2ebd
000000e0: 329f e53d 7e8a 32be 03c9 c6bd 8993 14bd
000000f0: bded 023e 510e ae3d 0888 d2bd bd65 1e3e
00000100: cc0f 623e 9106 48bd e567 693d 3b78 d53d
00000110: 8b19 083e 827f 8a3e 4535 2dbe 17b2 00be

encoder.encoder_cnn.0.bias f4 [8]
0.14452894 0.3846858 0.21178323 0.4056603 0.046155244 -0.25996774 0.079000026 -0.14241542
00000000: 65ff 133e 8af5 c43e b4dd 583e b5b2 cf3e
00000010: 480d 3d3d 7e1a 85be c4ca a13d 59d5 11be

encoder.encoder_cnn.2.weight f4 [16, 8, 3, 3]
-0.035080157 0.038983934 0.045964357 -0.065450005 -0.028726932 -0.028780153 0.024812374 -0.04107643
-0.0029409672 -0.0038871178 0.051208884 0.05598822 0.12232754 -0.039642848 -0.06044136 -0.026838839
-0.04276911 -0.011876529 -0.007437251 -0.010557418 0.12703197 0.098528095 -0.028497968 -0.017328618
-0.03653335 -0.012783628 -0.044805247 -0.02247166 0.013082863 0.05978654 -0.012615493 -0.040529422
-0.074269876 0.107019745 0.0184605 -0.058873102 -0.007463117 0.002904376 0.02260994 0.03569444
-0.008175451 -0.0146868685 -0.024578366 0.020751005 -0.006935852 -0.05862116 -0.040045008 -0.069253266
-0.09718206 -0.05162775 -0.052705422 -0.045446433 -0.07843165 -0.009349174 0.039034933 0.010716053
0.015138395 0.062124945 0.031304684 -0.04489607 -0.000618105 0.0042870375 -0.010677188 0.006755294
-0.04639042 -0.058091067 -0.013914204 -0.015025717 -0.06336207 -0.06755932 -0.025640612 -0.10124634
0.015179811 0.03753192 0.0001002395 -0.025674975 0.011267841 -0.13658129 0.033348918 -0.040911276
-0.07629213 -0.01742482 -0.03560867 -0.1005888 -0.01660204 -0.008669356 -0.16534302 0.053496324
-0.032827094 -0.05357693 0.089415826 0.0042167297 0.11341476 0.021811044 -0.045475706 0.1497325
-0.035054184 -0.06748106 0.062793486 -0.09600258 -0.022990476 -0.15181935 0.029649148 -0.018972157
-0.09219152 0.10726786 0.041018363 -0.08544082 -0.018527625 0.057541363 0.03967922 0.0767303
0.007419966 -0.050410327 -0.031658445 -0.08125346 -0.09023554 0.015548017 -0.03758463 0.03225311
-0.018169858 0.07553333 0.021830823 -0.0909171 -0.059479326 0.097653925 -0.010887947 0.027151877
0.011944306 0.041121386 -0.04469734 0.042539462 -0.047050267 0.027668457 -0.025602909 0.013592487
-0.13226913 -0.0088465875 0.0733119 -0.058955144 0.026662566 0.047269255 0.016399058 0.01394525
-0.044409573 0.0022835177 -0.0844205 -0.019175483 -0.049865514 -0.012627377 -0.0124603985 -0.017495366
-0.03711749 0.10120502 0.04902506 -0.07315079 0.066322654 -0.062040325 -0.053050656 0.04433358
-0.03847035 0.026650332 0.019296674 0.0018667784 0.051804505 -0.05944034 0.057007637 -0.06521769
0.01014413 -0.0006282947 -0.09593698 0.0409083 0.07924933 -0.019880315 -0.038742647 -0.057757758
-0.1121618 0.04448299 -0.102700725 -0.0555983 -0.0022764138 -0.006029609 0.022759784 0.035311114
0.009112719 -0.02947349 0.02132979 0.019125396 0.0993609 0.014377254 -0.06281079 -0.04686377
-0.08517428 0.024669448 -0.07194996 -0.120171644 0.10305425 -0.071640246 -0.042828456 -0.0013807693
-0.02804849 0.013057488 0.046570387 -0.043921296 -0.0010774035 -0.01700845 -0.030706637 0.013176923
-0.04291851 -0.009051481 -0.060474258 0.03805818 0.015328476 0.018918382 -0.024468152 -0.046362024
0.08937294 -0.04232512 0.006992948 -0.032217268 -0.105570376 0.037120283 -0.029679498 -0.060614955
0.009185289 -0.015692087 -0.014225265 0.047265675 -0.024293486 -0.17995584 -0.066343375 -0.004898917
-0.05576094 -0.04082509 0.026160479 0.059675824 -0.092777304 0.035227086 0.09628186 -0.0085179005
-0.047983553 0.014574519 -0.048678663 0.00014980334 -0.080340534 0.05001032 0.017222293 -0.1431189
-0.010314049 -0.049210466 -0.11094318 -0.07966902 0.028328108 0.06125002 0.013693357 0.03641035
00000000: 36b0 0fbd 9ead 1f3d 1f45 3c3d a70a 86bd
00000010: be54 ebbc 5bc4 ebbc 5243 cb3c c23f 28bd
00000020: 3ebd 40bb 04bf 7ebb 68c0 513d e753 653d
00000030: dc86 fa3d 8a60 22bd 5c91 77bd 20dd dbbc
00000040: aa2e 2fbd c695 42bc 2fb4 f3bb 05f9 2cbc
00000050: ab14 023e 19c9 c93d 9274 e9bc bff4 8dbc
00000060: fea3 15bd 6c72 51bc b585 37bd 7d16 b8bc
00000070: 8159 563c bbe2 743d 36b1 4ebc 2e02 26bd
00000080: ce1a 98bd 2b2d db3d 793a 973c ec24 71bd
00000090: 2a8d f4bb 5857 3e3b 7b38 b93c 5534 123d
000000a0: 54f2 05bc 31a1 70bc 9258 c9bc 03fe a93c
000000b0: 2546 e3bb be1c 70bd 3c06 24bd a8d4 8dbd
000000c0: 6307 c7bd 9f77 53bd a4e1 57bd 0a26 3abd
000000d0: c6a0 a0bd 472d 19bc 18e3 1f3d 6292 2f3c
000000e0: 0807 783c ba76 7e3d 5739 003d f1e4 37bd
000000f0: 5308 22ba 477a 8c3b 5fef 2ebc 835b dd3b
00000100: e203 3ebd e6f0 6dbd 67f8 63bc 6d2e 76bc
00000110: f9c3 81bd 8a5c 8abd 430c d2bc 3e5a cfbd
00000120: beb4 783c 12bb 193d ac37 d238 5354 d2bc
00000130: c09c 383c f7db 0bbe e098 083d 9592 27bd
00000140: 0c3f 9cbd 7fbe 8ebc 66da 11bd 8001 cebd
00000150: 0001 88bc ea09 0ebc ae4f 29be f61e 5b3d
00000160: b475 06bd 7c73 5bbd a51f b73d 7e2c 8a3b
00000170: ff45 e83d 13ad b23c bc44 3abd 7a53 193e
00000180: fa94 0fbd 8333 8abd df99 803d 009d c4bd
00000190: 8656 bcbc 8876 1bbe c5e2 f23c 7f6b 9bbc
000001a0: e8ce bcbd 40af db3d df02 283d 99fb aebd
000001b0: 3fc7 97bc 7eb0 6b3d ae86 223d c724 9d3d
000001c0: 3023 f33b 0f7b 4ebd 49ac 01bd 3768 a6bd
000001d0: 69cd b8bd 1cbd 7e3c 57f2 19bd d61b 043d
000001e0: f4d8 94bc 38b1 9a3d 8ed6 b23c bf32 babd
000001f0: 98a0 73bd c8fe c73d 5c63 32bc 9d6d de3c
00000200: 0db2 433c e66e 283d 8f14 37bd dc3d 2e3d
00000210: c8b7 40bd f6a8 e23c 31bd d1bc 06b3 5e3c
00000220: 8f71 07be 47f1 10bc 8d24 963d f37a 71bd
00000230: 746b da3c 689d 413d 5157 863c 9e7a 643c
00000240: d0e6 35bd 12a7 153b a8e4 acbd e715 9dbc
00000250: c83f 4cbd 0fe3 4ebc b326 4cbc 7152 8fbc
00000260: 8208 18bd 9444 cf3d 80ce 483d 15d0 95bd
00000270: 2cd4 873d ff1d 7ebd a54b 59bd 2197 353d
00000280: 1693 1dbd cc51 da3c 0f14 9e3c b0ae f43a
00000290: f630 543d b777 73bd d780 693d da90 85bd
000002a0: 9133 263c 25b4 24ba 9b7a c4bd 768f 273d
000002b0: 794d a23d 0bdc a2bc 9cb0 1ebd 6693 6cbd
000002c0: 16b5 e5bd cc33 363d c254 d2bd 0bbb 63bd
000002d0: e32f 15bb 0794 c5bb ba72 ba3c 63a2 103d
000002e0: 844d 153c 6372 f1bc d0bb ae3c ddac 9c3c
000002f0: ba7d cb3d 938e 6b3c f2a2 80bd 39f4 3fbd
00000300: da6f aebd 9517 ca3c 805a 93bd 8d1c f6bd
00000310: 1b0e d33d 1fb8 92bd e46c 2fbd eefa b4ba
00000320: f2c5 e5bc 13ef 553c 97c0 3e3d d1e6 33bd
00000330: aa37 8dba 4e55 8bbc 7c8c fbbc 05e4 573c
00000340: 52cb 2fbd aa4c 14bc dbb3 77bd e5e2 1b3d
00000350: 4a24 7b3c b9fa 9a3c 6f71 c8bc 1be6 3dbd
00000360: 2909 b73d 1b5d 2dbd 1925 e53b 41f6 03bd
00000370: 4835 d8bd 700b 183d 6b22 f3bc 6347 78bd
00000380: e57d 163c b18c 80bc 1611 69bc a799 413d
00000390: 2203 c7bc 5846 38be 09df 87bd 1887 a0bb
000003a0: 9565 64bd 3638 27bd 804e d63c a36e 743d
000003b0: 0702 bebd 474a 103d 6c2f c53d aa8e 0bbc
000003c0: 678a 44bd f7c9 6e3c 4763 47bd 8714 1d39
000003d0: 9489 a4bd 9fd7 4c3d c415 8d3c c38d 12be
000003e0: 42fc 28bc ea90 49bd 2e36 e3bd 8329 a3bd
000003f0: 5910 e83c 4de1 7a3d 1a5a 603c 0523 153d

encoder.encoder_cnn.2.bias f4 [16]
-2.7012848e-05 4.620828e-05 2.0323569e-07 -0.00014273816 -7.8026475e-05 -3.7633166e-05 6.659928e-05 -3.598576e-05
-1.3044073e-05 -5.3521703e-06 -8.722288e-06 -9.872501e-06 -6.0396258e-05 -4.0063627e-05 1.8073457e-05 -1.3818286e-05
00000000: a699 e2b7 c3cf 4138 0039 5a34 fcab 15b9
00000010: 25a2 a3b8 4ed8 1db8 37ab 8b38 6aef 16b8
00000020: ded7 5ab7 cb96 b3b6 f155 12b7 12a2 25b7
00000030: fd51 7db8 fe09 28b8 749c 9737 16d5 67b7

encoder.encoder_cnn.3.weight f4 [16]
0.9380606 0.9874763 0.8779922 1.012945 0.9589343 0.87418634 0.88991493 0.9159967
0.95429474 0.9034416 1.0123119 0.85035205 1.0049394 0.9481452 0.9153354 0.8872935
00000000: bd24 703f 3fcb 7c3f 19c4 603f 2fa8 813f
00000010: b87c 753f adca 5f3f 77d1 633f c27e 6a3f
00000020: a94c 743f f347 673f 7093 813f acb0 593f
00000030: dba1 803f a5b9 723f 6c53 6a3f ab25 633f

encoder.encoder_cnn.3.bias f4 [16]
0.04107971 0.054669954 -0.0040199333 0.084055044 0.07313519 0.01809008 0.05623746 0.04916486
0.011768791 0.04061694 0.076558255 0.019171033 0.096738905 0.019054383 0.019716993 0.05912836
00000000: 3343 283d 9aed 5f3d a5b9 83bb 0d25 ac3d
00000010: e7c7 953d a631 943c 4059 663d 1861 493d
00000020: e3d1 403c f35d 263d 93ca 9c3d 920c 9d3c
00000030: 0c1f c63d f017 9c3c 8885 a13c 9430 723d

encoder.encoder_cnn.3.running_mean f4 [16]
-0.0940181 -0.036516976 -0.16056557 -0.1514808 0.16124563 -0.00076946476 -0.1168397 -0.030629158
0.12622765 -0.036911987 0.00594256 -0.023206912 -0.067200676 0.02571991 -0.20150961 -0.080051795
00000000: 908c c0bd d392 15bd 4d6b 24be c81d 1bbe
00000010: 931d 253e e8b5 49ba a749 efbd 00ea fabc
00000020: d241 013e 0631 17bd ceb9 c23b 6c1c bebc
00000030: 82a0 89bd 90b2 d23c 8958 4ebe 32f2 a3bd

encoder.encoder_cnn.3.running_var f4 [16]
0.020496367 0.023798369 0.0066534933 0.01969525 0.0132328635 0.010795196 0.021353263 0.023438785
0.020383153 0.015564247 0.030177189 0.017491886 0.018169615 0.013229251 0.014652331 0.01357753
00000000: ffe7 a73c ccf4 c23c 8c05 da3b ef57 a13c
00000010: a7ce 583c 55de 303c 0aed ae3c b202 c03c
00000020: 92fa a63c 2f01 7f3c 2736 f73c 254b 8f3c
00000030: 72d8 943c 80bf 583c 5510 703c 4a74 5e3c

encoder.encoder_cnn.5.weight f4 [32, 16, 3, 3]
0.05073856 -0.034363523 0.047523905 0.06931718 0.034167238 -0.06155307 0.034975577 0.019827152
0.049276054 -0.0580331 0.0453506 0.067782655 -0.0758456 0.025481528 0.07037578 -0.063264064
0.054269813 0.026123732 0.006342376 0.066004395 0.06161788 0.05588342 -0.00813264 0.055503823
-0.07117484 -0.050002232 -0.0091916155 -0.006956592 0.08873829 0.010497275 0.05198909 0.009652723
-0.035673358 -0.004212615 0.0061095 0.044055928 0.013725925 -0.04732078 -0.04003599 0.054789662
-0.02897932 -0.07708842 0.06575149 0.043280825 -0.041609753 -0.022119116 -0.036868837 -0.020593096
-0.000401493 -0.055838235 0.029263612 -0.05244889 -0.0144627765 -0.011019048 0.03963598 0.04532669
0.031351104 0.04383992 -0.020346917 -0.07273084 -0.054574862 0.0039832313 0.034886755 -0.020700306
-0.015305923 -0.04341981 0.029817078 0.03920316 -0.075806856 -0.04974165 0.042786352 0.0001168124
0.016658876 0.00807432 -0.0087437015 -0.077153936 -0.066168115 0.048441682 0.012405551 0.012806222
-0.019585224 -0.07639633 -0.024309237 -0.10094795 0.068131365 0.06187026 -0.035087425 -0.011401135
0.041999176 -0.036108386 0.040341564 0.0040213233 -0.052901547 0.023073275 -0.02566072 0.07949224
-0.03433307 -0.018314883 0.0794031 -0.07302478 0.0047827866 0.08686407 -0.03969481 0.040880762
0.01639233 0.05952679 -0.014361342 0.04255411 0.004612031 -0.0039396705 0.04840231 0.010714416
0.008658842 0.07857052 -0.027445335 0.035370555 0.033723876 0.012340048 0.026467409 -0.064671606
-0.031074215 0.08652855 -0.023467295 0.052944552 -0.07807257 -0.03840821 -0.014429163 0.024357177
0.018762726 0.013415506 -0.00957399 -0.034146998 0.07239455 -0.05028174 -0.020808505 -0.028531034
0.049282335 0.054873835 -0.0034889875 -0.030499425 -0.05510305 0.060746793 -0.028647674 0.037325967
0.028676001 0.069758065 0.06365339 -0.056617297 0.032824345 -0.022698088 0.020266654 -0.012447464
-0.0027055345 0.0025132094 -0.105269775 0.021232732 0.027820148 -0.0029551587 0.032275323 -0.017315889
0.059426382 -0.025190473 -0.033167657 -0.0019440346 0.04267353 0.039744414 0.048632327 0.008706934
0.05243005 -0.06800994 -0.04709641 0.037033767 0.023527667 -0.11603403 -0.016651554 -0.045110717
-0.08354428 0.059028555 0.09353268 0.076020986 0.011740753 -0.007094188 -0.025811303 0.018172072
0.053564966 -0.039475076 -0.05264892 -0.062310312 -0.017292468 -0.08152378 -0.052313607 0.067556754
-0.0242108 0.036089744 -0.04050186 -0.059613135 -0.019186173 0.013978029 -0.018532515 0.013950535
0.03185384 -0.08618857 0.054938577 0.047594015 0.014307139 -0.057310067 0.029370822 -0.06029664
0.0025595776 0.0006330897 -0.04037048 0.035683665 -0.03503101 -0.016974453 -0.026515123 -0.046769485
0.0415363 -0.091583155 0.057201356 0.035642505 0.050835393 -0.0048329434 0.0090607405 0.04323683
0.061838828 0.06414227 -0.0071144574 -0.030877264 -0.061048567 0.012464961 0.03185159 0.036413435
0.050516065 0.035481043 0.047332652 -0.05559114 0.058438264 0.1005242 0.0201266 -0.03546627
0.08717849 0.013617621 0.068884924 0.0191087 0.045746453 -0.044088505 -0.05248809 0.06733981
-0.027569965 -0.058012944 0.06373225 -0.0070762876 0.08873565 -0.0288488 0.0017592857 -0.009349554
00000000: 3cd3 4f3d c4c0 0cbd 6da8 423d 2af6 8d3d
00000010: f2f2 0b3d 121f 7cbd 8d42 0f3d 8d6c a23c
00000020: b0d5 493d 1eb4 6dbd 8dc1 393d a2d1 8a3d
00000030: f054 9bbd a3be d03c 2d21 903d 9790 81bd
00000040: 064a 5e3d 7001 d63c b5d3 cf3b 502d 873d
00000050: 0863 7c3d 03e6 643d c43e 05bc fa57 633d
00000060: 1dc4 91bd 24cf 4cbd 6e98 16bc 20f4 e3bb
00000070: 6cbc b53d c3fc 2b3c 83f2 543d 7426 1e3c
00000080: 3a1e 12bd fa09 8abb 3332 c83b fd73 343d
00000090: b4e2 603c 6fd3 41bd c7fc 23bd 206b 603d
000000a0: 0a66 edbc 89e0 9dbd b8a8 863d 3c47 313d
000000b0: fd6e 2abd 2633 b5bc c703 17bd dab2 a8bc
000000c0: 7a7f d2b9 a2b6 64bd 3eba ef3c a6d4 56bd
000000d0: 48f5 6cbc 3d89 34bc 5659 223d 7ba8 393d
000000e0: 046a 003d 7d91 333d 94ae a6bc e8f3 94bd
000000f0: e489 5fbd c485 823b 6ae5 0e3d b093 a9bc
00000100: b2c5 7abc f8d8 31bd f242 f43c 7e93 203d
00000110: a040 9bbd e6bd 4bbd be40 2f3d 2ef9 f438
00000120: 3278 883c 274a 043c be41 0fbc e202 9ebd
00000130: 2683 87bd c96a 463d a740 4b3c 30d1 513c
00000140: 3171 a0bc ae75 9cbd 2a24 c7bc ccbd cebd
00000150: 7588 8b3d ab6b 7d3d d5b7 0fbd d3cb 3abc
00000160: 5407 2c3d 63e6 13bd 323d 253d 4ec5 833b
00000170: 4baf 58bd 2a04 bd3c 6e36 d2bc d4cc a23d
00000180: d5a0 0cbd 1809 96bc 189e a23d 048e 95bd
00000190: ecb8 9c3b cae5 b13d 0697 22bd 9672 273d
000001a0: 3549 863c 5dd2 733d d64b 6bbc 384d 2e3d
000001b0: 8520 973b 5a18 81bb 8041 463d 858b 2f3c
000001c0: d1dd 0d3c 95e9 a03d 0ad5 e0bc b7e0 103d
000001d0: 0c22 0a3d ea2d 4a3c 2ed2 d83c 8c72 84bd
000001e0: 5a8f febc e135 b13d 7c3e c0bc 63dc 583d
000001f0: 83e4 9fbd ed51 1dbd 4c68 6cbc b488 c73c
00000200: 4ab4 993c b6cc 5b3c 39dc 1cbc b9dd 0bbd
00000210: 9843 943d 3af4 4dbd 9976 aabc eab9 e9bc
00000220: 46dc 493d 63c3 603d 7fa7 64bb eed9 f9bc
00000230: bcb3 61bd a1d1 783d 87ae eabc 1de3 183d
00000240: efe9 ea3c 51dd 8e3d b55c 823d 8ae7 67bd
00000250: d272 063d 57f1 b9bc 4106 a63c 73f0 4bbc
00000260: 564f 31bb a8b4 243b ae97 d7bd 44f0 ad3c
00000270: 14e7 e33c 56ab 41bb 2133 043d 0dda 8dbc
00000280: 1469 733d 405c cebc cfda 07bd face feba
00000290: 70ca 2e3d 0acb 223d b132 473d 87a7 0e3c
000002a0: e4c0 563d cc48 8bbd 2ae8 40bd b8b0 173d
000002b0: 18bd c03c 40a3 edbd d768 88bc 04c6 38bd
000002c0: 4319 abbd edc7 713d 108e bf3d e4b0 9b3d
000002d0: 4a5c 403c 5d76 e8bb 3a72 d3bc 99dd 943c
000002e0: f066 5b3d 9eb0 21bd 65a6 57bd 1939 7fbd
000002f0: efa8 8dbc f1f5 a6bd cb46 56bd 325b 8a3d
00000300: ba55 c6bc d7d2 133d 47e5 25bd e72c 74bd
00000310: 522c 9dbc 1a04 653c 80d1 97bc c990 643c
00000320: 2c79 023d a283 b0bd 4607 613d f1f1 423d
00000330: 7e68 6a3c f6bd 6abd 149b f03c 9cf9 76bd
00000340: 96be 273b eef5 253a 845b 25bd 0929 123d
00000350: ad7c 0fbd 020e 8bbc 3e36 d9bc 5c91 3fbd
00000360: f821 2a3d f38f bbbd f84b 6a3d e0fd 113d
00000370: c638 503d ab5d 9ebb 8073 143c 1a19 313d
00000380: b64a 7d3d 065d 833d 6520 e9bb 51f2 fcbc
00000390: 100e 7abd d639 4c3c d076 023d 4126 153d
000003a0: efe9 4e3d 9254 113d e2df 413d 89b3 63bd
000003b0: f65c 6f3d a2df cd3d 8ae0 a43c 1445 11bd
000003c0: a38a b23d 711c 5f3c 8a13 8d3d d989 9c3c
000003d0: a260 3b3d 2696 34bd c0fd 56bd 74e9 893d
000003e0: 68da e1bc fb9e 6dbd 0e86 823d 34e0 e7bb
000003f0: 09bb b53d 5254 ecbc d597 e63a df2e 19bc

encoder.encoder_cnn.5.bias f4 [32]
-0.023310216 0.0140618 0.064770155 0.052755374 0.045797843 0.044585284 -0.0135661205 0.051756173
0.06686262 0.07473991 -0.03503517 -0.016605284 -0.0575772 0.031123282 0.071988136 -0.019576686
0.02699876 0.025147725 -0.052529883 0.011485698 0.004885522 -0.016250312 -0.043399367 0.04426571
0.0035640295 -0.014746547 -0.0009971315 0.0026743896 -0.014733469 -0.014305929 0.02940781 -0.010482103
00000000: 11f5 bebc 7763 663c 37a6 843d 0516 583d
00000010: 8596 3b3d 0f9f 363d 6f44 5ebc 48fe 533d
00000020: 45ef 883d 3d11 993d 0a81 0fbd ce07 88bc
00000030: 12d6 6bbd 41f6 fe3c 846e 933d 495f a0bc
00000040: 812c dd3c 9a02 ce3c 9329 57bd 822e 3c3c
00000050: bb16 a03b 601f 85bc 89c3 31bd f64f 353d
00000060: 7e92 693b 809b 71bc 2eb2 82ba d044 2f3b
00000070: a664 71bc 6a63 6abc a6e8 f03c 20bd 2bbc

encoder.encoder_lin.0.weight f4 [128, 288]
-0.021023026 -0.031741254 -0.03555309 -0.020901438 0.007894349 -0.03692576 -0.034429252 -0.015225351
0.008404161 -0.008738119 -0.053239316 -0.007875963 0.032728523 0.035921298 0.028772429 -0.06478562
-0.08779925 -0.046152618 -0.018390525 -0.074118935 0.012797393 -0.00044142437 -0.042739432 -0.020820413
-0.08845688 -0.04426575 -0.029296078 0.0141382795 -0.004704339 0.01024534 -0.052497882 0.0485838
0.008567879 0.017397117 0.03915602 0.008820231 0.008507748 0.05133409 0.009021133 -0.013238261
-0.0222818 0.0028129965 0.053182617 0.03262699 -0.020297447 -0.0052388455 -0.015624907 -0.04910643
0.0012891333 0.056958307 0.048202902 0.03928804 -0.034027275 -0.032477353 -0.039991442 -0.04090277
-0.0010680103 0.0006983659 0.057342384 0.010646234 0.0029883427 -0.071181595 0.02208903 -0.04827623
0.049855098 -0.0133791 -0.01706613 -0.027955037 0.03188044 0.0032460152 0.055706885 -0.027894598
0.007396023 -0.001572997 0.014131333 0.02544496 0.011478349 -0.0501442 -0.007054451 -0.046253596
0.0130044585 0.048473563 0.008034822 -0.086017124 0.0014364015 -0.022962404 -0.032307964 0.015596042
0.020854613 0.0004980981 0.033969067 0.011200667 -0.065412685 0.02354751 -0.0010240364 -0.031425696
0.009531304 0.05059314 -0.03578214 0.02360154 -0.08608446 0.007972901 -0.050637305 -0.0645077
0.00991228 -0.006582271 0.023876548 0.0064227465 0.018071393 -0.027723234 -0.008496974 -0.049424607
0.028505798 -0.046229977 -0.0036847491 -0.015351919 0.061619256 0.026533475 0.012045609 0.020535592
0.008777847 0.010906953 0.012841094 0.019276196 -0.05648031 0.0017976359 0.010279216 0.04245734
-0.004106032 -0.023478836 -0.004936991 0.012222756 0.046611674 -0.0044939946 -0.0023561541 0.0029403474
0.022713657 0.010955267 -0.037242293 0.0074334694 -0.027837947 0.014531098 0.013034504 0.04964166
0.03575651 -0.08097043 -0.004294764 -0.022479597 0.007583361 -0.07774822 -0.036352422 -0.032654293
-0.014102315 -0.0135316765 0.008648059 -0.01648965 -0.04004443 -0.014323112 0.026792567 0.04679105
0.01711573 -0.0042042774 -0.0013245654 0.035085265 0.037599593 -0.0779949 0.025149936 -0.01991923
0.004352223 0.036746103 0.020511705 0.03269454 -0.053863015 0.0007578638 0.007053421 -0.020342028
0.036715902 -0.005273557 -0.006027288 0.020878777 -0.008578881 0.006442919 0.039891016 0.048960127
-0.04201047 -0.004850363 -0.011290021 0.0075945267 -0.007937269 -0.012175986 0.012650914 -0.020928312
0.023161318 -0.0350744 -0.0044776653 0.023944024 0.0057847104 0.045255408 0.017123377 -0.024899924
-0.029618142 -0.03824263 0.033900134 -0.014604204 -0.011321822 0.01750943 -0.0055349497 -0.018226407
-0.08248587 -0.022640578 0.07953508 0.06803619 -0.022836365 -0.05868263 0.010318382 0.0095208585
-0.022469748 0.008735499 -0.017662337 -0.061821204 -0.021320097 0.043847412 0.023201725 0.0057357363
0.050045494 -0.006264899 0.013232124 -0.013725194 -0.06987171 0.008917861 0.0043146466 -0.007881727
-0.020651774 0.061181005 0.024795221 0.0190086 0.0068881875 0.02513081 -0.0074017136 -0.0075689023
0.0018983765 -0.008601652 0.004248199 -0.02847191 0.040190812 -0.06279708 -0.029088093 0.042632356
-0.0050889333 -0.038517393 0.0185656 0.025898542 0.03526377 -0.05666845 -0.06440039 0.0019600515
00000000: 7b38 acbc 1e03 02bd 1ea0 11bd 7e39 abbc
00000010: 4d57 013c 773f 17bd b005 0dbd c073 79bc
00000020: 9bb1 093c 542a 0fbc 7811 5abd 2f0a 01bc
00000030: 580e 063d 3622 133d 28b4 eb3c 53ae 84bd
00000040: 18d0 b3bd 870a 3dbd baa7 96bc abcb 97bd
00000050: 28ac 513c fa6e e7b9 8b0f 2fbd 928f aabc
00000060: e128 b5bd 0150 35bd 54fe efbc 3ea4 673c
00000070: db26 9abb 12dc 273c 0508 57bd cfff 463d
00000080: 4a60 0c3c 6684 8e3c 1062 203d bb82 103c
00000090: 1564 0b3c b243 523d 60cd 133c 4be5 58bc
000000a0: 5288 b6bc 405a 383b 04d6 593d e1a3 053d
000000b0: d546 a6bc 9faa abbb 9cff 7fbc d323 49bd
000000c0: 23f8 a83a 1d4d 693d 6870 453d 7fec 203d
000000d0: 2f60 0bbd f906 05bd 11ce 23bd aa89 27bd
000000e0: 7bfc 8bba 8b12 373a d9df 6a3d 8b6d 2e3c
000000f0: 12d8 433b a8c7 91bd 0ef4 b43c 4cbd 45bd
00000100: dc34 4c3d 0334 5bbc 45ce 8bbc f601 e5bc
00000110: 1095 023d 19bb 543b e72c 643d 3683 e4bc
00000120: 565a f23b 052d ceba 1b87 673c f371 d03c
00000130: af0f 3c3c 0164 4dbd 0629 e7bb 6974 3dbd
00000140: a710 553c 378c 463d 7ca4 033c bf29 b0bd
00000150: a345 bc3a a71b bcbc 5b55 04bd 8b86 7f3c
00000160: 4bd7 aa3c cc92 023a 2623 0b3d 0183 373c
00000170: 16f7 85bd b5e6 c03c f638 86ba 3bb8 00bd
00000180: 3029 1c3c c13a 4f3d 4b90 12bd 0458 c13c
00000190: 0d4d b0bd c5a0 023c 1069 4fbd 9d1c 84bd
000001a0: 1e67 223c 17b0 d7bb c098 c33c e775 d23b
000001b0: 750a 943c d61b e3bc e436 0bbc 7571 4abd
000001c0: fe84 e93c a55b 3dbd d57b 71bb 9e86 7bbc
000001d0: 7964 7c3d bb5c d93c f25a 453c 423a a83c
000001e0: f5d0 0f3c 14b3 323c 7463 523c 1de9 9d3c
000001f0: e657 67bd a79e eb3a 286a 283c bfe7 2d3d
00000200: e58b 86bb b056 c0bc 7bc6 a1bb f441 483c
00000210: e2eb 3e3d 5c42 93bb b569 1abb d8b2 403b
00000220: fe11 ba3c b87d 333c 608b 18bd 7694 f33b
00000230: 680c e4bc d813 6e3c ac8e 553c 0e55 4b3d
00000240: 6b75 123d d3d3 a5bd 17bb 8cbb 2227 b8bc
00000250: d87d f83b 753a 9fbd 47e6 14bd 82c0 05bd
00000260: 650d 67bc f7b3 5dbc 97b0 0d3c 4d15 87bc
00000270: a105 24bd 7cab 6abc 167c db3c f9a7 3f3d
00000280: 4a36 8c3c 09c4 89bb 0a9d adba 91b5 0f3d
00000290: 0802 1a3d cabb 9fbd 3d07 ce3c a72d a3bc
000002a0: 189d 8e3b 1583 163d 2a08 a83c b6ea 053d
000002b0: 779f 5cbd 61ab 463a 6220 e73b 53a4 a6bc
000002c0: 6a63 163d cdcd acbb 8e80 c5bb f809 ab3c
000002d0: 6f8e 0cbc 1f1f d33b c364 233d 6a8a 483d
000002e0: 2c13 2cbd cbef 9ebb c8f9 38bc 82db f83b
000002f0: 520b 02bc c97d 47bc c745 4f3c da71 abbc
00000300: cebc bd3c 2daa 0fbd 61b9 92bb 4226 c43c
00000310: ab8d bd3b bc5d 393d 5346 8c3c edfa cbbc
00000320: bfa1 f2bc 4ea4 1cbd deda 0a3d 7946 6fbc
00000330: 2a7f 39bc f06f 8f3c 865e b5bb 8c4f 95bc
00000340: 5aee a8bd bc78 b9bc 4ae3 a23d 8f56 8b3d
00000350: 5413 bbbc 335d 70bd 6e0e 293c 60fd 1b3c
00000360: 7a12 b8bc 571f 0f3c 9bb0 90bc 3b38 7dbd
00000370: 7ca7 aebc 5899 333d 8b11 be3c d8f2 bb3b
00000380: 81fc 4c3d c849 cdbb 8dcb 583c a3df 60bc
00000390: e618 8fbd 381c 123c e161 8d3b 5c22 01bc
000003a0: e92d a9bc ef98 7a3d 591f cb3c ecb7 9b3c
000003b0: 4eb6 e13b 21df cd3c 138a f2bb 8e04 f8bb
000003c0: f2d2 f83a f2ed 0cbc 7a34 8b3b ec3d e9bc
000003d0: 1f9f 243d c19b 80bd 274a eebc 449f 2e3d
000003e0: 11c1 a6bb 6ac4 1dbd e316 983c 2e29 d43c
000003f0: be70 103d 2d1d 68bd 5ae4 83bd 3574 003b

encoder.encoder_lin.0.bias f4 [128]
0.022165274 0.016634068 -0.0057548815 -0.003903936 -0.030421192 -0.017571036 0.0015808343 0.03235328
0.06922826 0.005584912 0.013543022 0.0016191723 -0.004445007 0.004767089 0.029931007 0.008316762
0.030310433 -0.00055316405 -0.041019753 -0.036176614 -0.004879365 0.0030904748 0.02116474 -0.0025931778
-0.0009747404 -0.0037836703 0.059180785 0.0029336624 0.02254184 0.044096123 0.021069353 -0.0029279394
0.039943654 -0.054233897 -0.021803813 -0.03382796 -0.009465659 0.0010013068 0.0047081592 -0.0032769945
0.05698118 0.015510456 0.044793766 0.04073573 0.003777065 0.0017646849 -0.019124951 -9.5845164e-05
0.051117387 0.02737058 -0.015156097 -0.03631685 -0.022217691 0.030838935 -0.011155048 0.03886899
0.023152057 0.008284822 0.013734891 -0.024607204 -0.03429657 0.008939004 4.6366417e-06 -0.0382343
-0.050315816 -0.009639733 0.036040813 0.048122983 0.012920139 -0.036333375 0.057912685 0.037906274
0.041798618 -0.016777867 -0.007913562 0.029043216 0.04270677 -0.039179668 -0.00095052156 0.0046877502
-0.022344396 -0.0012753381 -0.0037640752 0.051252577 0.039653663 0.033882763 -0.029944701 0.014090931
-0.057213943 0.035489123 0.019374989 -0.0073345164 -0.0013894733 -0.018883627 -0.002058499 0.041490287
-0.0013625165 0.025448373 0.048020497 0.014070486 -0.0016874458 0.022500124 0.020598609 -0.004790418
-0.0018127534 0.04539845 -0.0074656373 0.043606497 0.011462901 0.06859944 0.05760149 -0.006010702
0.037476547 0.022788005 0.010793737 0.016592113 -0.0020040902 -0.00389322 -0.0014424282 -0.030441403
-0.017855277 -0.01796501 4.546551e-05 0.04096174 0.0096224295 -0.01239184 -0.032197475 -0.050357264
00000000: f393 b53c 2b44 883c 7293 bcbb 2dd9 7fbb
00000010: dd35 f9bc 22f1 8fbc ff33 cf3a df84 043d
00000020: 8cc7 8d3d a301 b73b 8de3 5d3c 683a d43a
00000030: 6ca7 91bb 3e35 9c3b df31 f53c 0743 083c
00000040: 964d f83c 3602 11ba 5404 28bd ee2d 14bd
00000050: 15e3 9fbb 9089 4a3b ad61 ad3c 4ef2 29bb
00000060: b985 7fba 74f7 77bb 8d67 723d b042 403b
00000070: aaa9 b83c 239e 343d a399 ac3c ace2 3fbb
00000080: f59b 233d 5d24 5ebd e99d b2bc 308f 0abd
00000090: da15 1bbc 483e 833a e746 9a3b d8c2 56bb
000000a0: 1965 693d 911f 7e3c ab79 373d 82da 263d
000000b0: a388 773b 004d e73a eeab 9cbc 7b00 c9b8
000000c0: 7760 513d 4438 e03c 4751 78bc fac0 14bd
000000d0: e001 b6bc efa1 fc3c aac3 36bc 1735 1f3d
000000e0: 62a9 bd3c 10bd 073c 4f08 613c 0c95 c9bc
000000f0: 8f7a 0cbd e674 123c 7394 9b36 929b 1cbd
00000100: f517 4ebd f8ef 1dbc 889f 133d 9b1c 453d
00000110: feae 533c 4ed2 14bd da35 6d3d 9c43 1b3d
00000120: 0735 2b3d bd71 89bc e2a7 01bc 0aec ed3c
00000130: 4bed 2e3d dc7a 20bd 6c2c 79ba b39b 993b
00000140: 980b b7bc 3f29 a7ba b4ae 76bb 39ee 513d
00000150: e16b 223d a7c8 0a3d 974e f5bc a6dd 663c
00000160: 2b59 6abd 0b5d 113d 4cb8 9e3c 6256 f0bb
00000170: fd1e b6ba d6b1 9abc e2e7 06bb b8f1 293d
00000180: 7896 b2ba 1b79 d03c 24b1 443d e587 663c
00000190: 492d ddba 2e52 b83c 6abe a83c f0f8 9cbb
000001a0: e999 edba baf3 393d 4ea2 f4bb ba9c 323d
000001b0: e4ce 3b3c dd7d 8c3d 8aef 6b3d 6cf5 c4bb
000001c0: 0281 193d e9ad ba3c 37d8 303c 2fec 873c
000001d0: 0e57 03bb 6525 7fbb dc0f bdba 4060 f9bc
000001e0: 3b45 92bc 5b2b 93bc 38b2 3e38 7fc7 273d
000001f0: 65a7 1d3c 2507 4bbc 80e1 03bd 6b43 4ebd

encoder.encoder_lin.2.weight f4 [3, 128]
0.07683544 0.009489687 -0.004229216 0.0078642545 0.049968652 -0.19300383 -0.029034646 0.005782157
0.13360354 -0.02846943 0.03308475 0.13366988 -0.02939389 -0.052382685 -0.12517066 0.13712096
-0.07924003 0.00015620924 0.018599734 -0.040348385 0.0038479485 -0.009635271 -0.00017169438 0.0014414084
0.019888157 -0.095996834 0.0011730129 0.053765554 0.08065078 0.092190966 -0.07049113 -0.11998288
-0.22194572 0.017689103 0.030601045 0.14964198 -0.045614164 0.088780366 -0.021520276 -0.0016180874
0.08052037 0.069010876 0.0774571 0.084386215 -0.118971854 -0.17631589 -0.087350965 3.016656e-07
0.08155137 0.0033634966 0.02193502 -0.13587077 0.08603652 -0.16604756 0.07935588 -0.09973598
0.0694451 -0.10699479 0.0610709 0.03880184 -0.104633674 0.036547128 0.004518467 -0.12390211
-0.040374618 -0.007576566 -0.065802746 0.09102439 0.071901485 0.08866348 -0.08192442 -0.02496895
0.043684635 -0.0060821665 0.065836675 -0.10769924 0.080169834 -0.07525386 0.00059576525 -0.060155917
-0.03218224 -0.000797803 0.006583868 -0.009140247 0.08167329 0.05150321 0.082805246 -0.01823215
-0.1271085 0.07658076 0.008453581 0.058669914 0.000982718 0.058556642 0.062453747 -0.017346136
-0.001682253 -0.044196945 0.036769867 0.0023897465 0.0020863465 0.049730264 -0.026502036 0.0019064931
8.0070276e-07 0.06422394 -0.06568941 -0.031632774 0.050649256 0.01840231 -0.05975361 0.0043756654
0.080792084 -0.08543503 -0.0013263534 -0.110686675 0.006569203 -0.033503786 -0.016938686 -0.16611478
-0.017722093 0.088911876 -0.056836925 -0.043603465 0.050013974 -0.020277083 0.07523793 -0.074190944
-0.110307895 -0.094371885 -0.0051170355 0.007399253 -0.020380417 -0.060871873 0.008186224 0.080453105
-0.09392047 -0.06530436 -0.0679516 0.013103631 -0.041572724 0.08526383 0.17245774 -0.11768226
-0.031182513 0.0030867131 0.055190053 0.07234632 0.0045108376 -0.11334792 0.011527552 0.0050508888
0.020880098 -0.10464801 0.09543156 -0.02263266 -0.020001926 0.045370627 0.106715105 -0.09910491
-0.09644596 0.03320671 -0.09121708 0.016533673 -0.017846614 0.061026905 -0.08885937 -0.0005865088
0.065755345 -0.06735245 0.045095585 0.054114815 0.060562287 -0.035687502 0.051883202 3.2684446e-05
-0.06608508 0.08204843 -0.04114752 -0.01978074 -0.07525728 -0.06949708 -0.08463854 0.014459956
0.096730195 -0.05408724 0.05977644 0.015799262 0.13435398 0.084729746 0.0019336252 0.105187416
0.14914033 0.031396363 0.041726448 -0.043818522 0.0014845248 0.041335642 -0.052196726 -0.031694755
0.105233595 0.0015334078 -0.040642876 0.10190638 0.066854976 0.13135494 0.081899576 -0.112727016
0.033105195 0.002072599 0.003010633 0.09155228 -0.048928324 -0.10007259 -0.020754483 0.0039438372
-0.11247131 0.05324661 0.09244202 -0.0053922865 0.002709201 -0.09952 -0.06855224 -0.10993913
-0.0062359786 0.007330171 -0.032922436 0.102715336 0.003251832 0.031028278 0.03554389 0.0032228385
1.8399774e-08 0.054955687 -0.09736269 0.04344528 0.08266043 -0.06433779 -0.101519585 0.006501661
0.078911856 -0.021511512 0.14728305 0.0120681515 0.0017665431 0.012002744 0.1276974 0.14018705
-0.09615281 0.037660982 0.045364443 -0.0658834 -0.01135607 -0.057341855 0.06679224 -0.021090226
00000000: e65b 9d3d a27a 1b3c 3c95 8abb 13d9 003c
00000010: eeab 4c3d cca2 45be 11da edbc 4078 bd3b
00000020: 5ecf 083e b938 e9bc e083 073d c2e0 083e
00000030: 75cb f0bc 3a8f 56bd bd2c 00be 7069 0c3e
00000040: 9948 a2bd 19cc 2339 785e 983c 5944 25bd
00000050: dd2d 7c3b 41dd 1dbc dc08 34b9 a4ed bc3a
00000060: 7dec a23c fd99 c4bd c8bf 993a 4539 5c3d
00000070: 3c2c a53d 9ece bc3d a75d 90bd 96b9 f5bd
00000080: bd45 63be bde8 903c 0baf fa3c bf3b 193e
00000090: ebd5 3abd 7bd2 b53d 4a4b b0bc 0116 d4ba
000000a0: dde7 a43d 9355 8d3d d4a1 9e3d aed2 ac3d
000000b0: 84a7 f3bd 278c 34be 10e5 b2bd 9bf4 a134
000000c0: 6804 a73d 1c6e 5c3b 12b1 b33c b521 0bbe
000000d0: ea33 b03d 5f08 2abe 5685 a23d 6142 ccbd
000000e0: 3c39 8e3d 1620 dbbd 7b25 7a3d aeee 1e3d
000000f0: 2e4a d6bd 71b2 153d a60f 943b 64c0 fdbd
00000100: db5f 25bd d844 f8bb 97c3 86bd ff6a ba3d
00000110: 1641 933d 3395 b53d fec7 a7bd af8b ccbc
00000120: a9ee 323d e94c c7bb 61d5 863d 6b91 dcbd
00000130: 1530 a43d b21e 9abd 212d 1c3a 0d66 76bd
00000140: 86d1 03bd a723 51ba 7dbd d73b f9c0 15bc
00000150: 5344 a73d 08f5 523d cc95 a93d 975b 95bc
00000160: bb28 02be 60d6 9c3d e380 0a3c dd4f 703d
00000170: 8bce 803a 17d9 6f3d 80cf 7f3d 7c19 8ebc
00000180: 0b7f dcba db07 35bd 009c 163d 4b9d 1c3b
00000190: 16bb 083b f6b1 4b3d cc1a d9bc 4be3 f93a
000001a0: e0ef 5635 d787 833d 2b88 86bd 5e91 01bd
000001b0: 9875 4f3d 71c0 963c 34c0 74bd be61 8f3b
000001c0: 5276 a53d 90f8 aebd 09d9 adba b2af e2bd
000001d0: 7842 d73b 443b 09bd 00c3 8abc fe19 2abe
000001e0: ec2d 91bc 6e17 b63d d6cd 68bd 8c99 32bd
000001f0: 74db 4c3d 201c a6bc 5816 9a3d 6cf1 97bd
00000200: 1be9 e1bd 0c46 c1bd ceac a7bb 6f75 f23b
00000210: d5f4 a6bc c954 79bd 831f 063c 99c4 a43d
00000220: 6059 c0bd 4bbe 85bd 352a 8bbd 9db0 563c
00000230: 2948 2abd ce9e ae3d c398 303e 6603 f1bd
00000240: 7872 ffbc 744a 4a3b f70e 623d 4f2a 943d
00000250: a6cf 933b f422 e8bd 0fde 3c3c ed81 a53b
00000260: bd0c ab3c b251 d6bd 9f71 c33d 2168 b9bc
00000270: 14db a3bc 8dd6 393d 738d da3d 84f7 cabd
00000280: 7685 c5bd c203 083d 05d0 babd a071 873c
00000290: 1033 92bc 59f7 793d e7fb b5bd f0bf 19ba
000002a0: bdaa 863d 15f0 89bd 26b6 383d 7fa7 5d3d
000002b0: 2910 783d 0f2d 12bd 7b83 543d a816 0938
000002c0: 9d57 87bd 0209 a83d 4d8a 28bd 380b a2bc
000002d0: 7d20 9abd 7c54 8ebd f956 adbd 74e9 6c3c
000002e0: 7b1a c63d 958a 5dbd 24d8 743d 746d 813c
000002f0: 1794 093e ca86 ad3d b271 fd3a 806c d73d
00000300: 3eb8 183e 7999 003d 5ae9 2a3d 0d7b 33bd
00000310: 6394 c23a 904f 293d 3ccc 55bd 5cd2 01bd
00000320: b684 d73d a1fc c83a 2579 26bd 4bb4 d03d
00000330: 43eb 883d e981 063e f7ba a73d 6cdd e6bd
00000340: 5099 073d 71d4 073b 0a4e 453b c37f bb3d
00000350: 1169 48bd dcf2 ccbd 4e05 aabc 4e3b 813b
00000360: 5c57 e6bd 1e19 5a3d 3e52 bd3d c7b1 b0bb
00000370: da8c 313b 24d1 cbbd 1e65 8cbd c427 e1bd
00000380: 2e57 ccbb ee31 f03b add9 06bd 6b5c d23d
00000390: b01c 553b 042f fe3c 7896 113d 4236 533b
000003a0: 880d 9e32 3719 613d 1766 c7bd aef3 313d
000003b0: df49 a93d 88c3 83bd 80e9 cfbd e30b d53b
000003c0: 8a9c a13d e938 b0bc 5ed1 163e 7fb9 453c
000003d0: 5a8b e73a 28a7 443c 1bc3 023e 328d 0f3e
000003e0: c4eb c4bd 6742 1a3d 11d0 393d e0ed 86bd
000003f0: cf0e 3abc 4bdf 6abd 5fca 883d 69c5 acbc

encoder.encoder_lin.2.bias f4 [3]
0.043479014 0.06446455 -0.058341637
00000000: 0d17 323d fd05 843d a4f7 6ebd

decoder.decoder_conv.0.weight f4 [32, 16, 3, 3]
-0.0399623 -0.1239701 -0.089158945 -0.04794696 -0.03412115 -0.097570255 0.02242775 0.046113893
-0.043796983 -0.033294566 0.032005806 0.03406381 -0.029442051 -0.013714001 -0.033791795 -0.06377123
-0.1201029 -0.10649648 -0.03119511 -0.014568628 0.0039523556 -0.0010500567 0.055236347 -0.048258606
-0.09163276 -0.1016916 -0.08793022 -0.011419352 0.05378612 -0.02553809 0.02173719 0.050612416
0.04856166 0.021569867 0.0091366805 -0.05013914 -0.06418247 0.004311585 0.03699424 -0.044174086
-0.11442831 -0.063522965 -0.036688086 -0.089722216 -0.022193387 0.05739674 -0.012002372 0.014918714
-0.060332827 -0.031718846 0.0057774815 -0.057883292 0.025122773 -0.050418667 -0.0048449347 -0.13614881
0.046866603 0.05270961 -0.0009150121 -0.053311102 -0.0014039092 0.022604125 0.08099333 -0.028455809
-0.0009699231 -0.021453453 0.04175087 0.01595569 0.027374076 0.011441847 0.06324161 -0.01166863
-0.044645973 -0.099874794 -0.044649504 -0.071066484 -0.020083578 -0.005830217 -0.013596356 0.011854367
-0.09095863 -0.051720098 -0.010930781 -0.014360538 -0.049272962 0.026211288 -0.060087517 0.057452668
0.072219364 -0.030911969 0.03356435 -0.03974858 -0.050706845 -0.10234156 -0.0067327404 -0.059778757
0.069862224 -0.019142395 -0.11283217 0.010449514 -0.066457 0.037082512 -0.093839 -0.015349932
0.04507753 -0.0564672 0.0808038 0.06603321 -0.047050264 0.027289115 0.0015757998 -0.039573897
0.0141723165 0.07679031 0.0115097035 -0.0573356 -0.108780794 -0.046642363 -0.024742462 -0.04596073
0.0145327365 0.009275019 0.021539189 0.051598098 -0.0008979888 0.009927436 -0.02403727 -0.08193018
-0.012181798 0.05983808 0.052591104 -0.054235186 0.0050214543 0.044870973 -0.11939091 -0.015488625
0.041375495 -0.029959142 0.019240873 -0.06868818 0.01939414 0.027006319 0.010540101 0.018648349
0.066475 -0.052784663 0.05928344 -0.032881785 -0.12359466 0.014816426 0.050254017 0.06276761
-0.06298049 0.01405866 0.032506783 0.055259652 0.08798728 0.021446312 -0.019586144 -0.08840779
-0.04315545 -0.04494111 0.0002795554 0.059278198 -0.020648604 -0.15382299 -0.112970255 -0.01759739
0.079206936 0.016907701 -0.011657094 -0.034413457 0.009178893 -0.014682806 -0.049754143 -0.043786805
-0.052793037 0.04545782 -0.011198574 -0.059082706 -0.004969406 0.02892815 -0.021156386 -0.051451232
-0.1044096 0.011827256 -0.07514888 -0.04386292 -0.0133962035 0.066937834 -0.042961486 0.017576937
0.122249395 -0.036435656 0.038088348 0.034930952 -0.025245257 0.04624574 -0.065065786 -0.03479158
-0.01640488 -0.036536317 -0.011709763 -0.024318459 -0.047449317 0.0038884776 -0.025911035 1.1791795e-05
-0.0697731 -0.034035742 -0.028625965 -0.022719223 -0.019314807 -0.017598202 -0.051457446 0.04556051
0.06482691 0.026211942 0.0036577263 -0.04228943 0.059016697 -0.048678074 -0.014424579 -0.008260337
-0.09762173 -0.06523649 -0.112451196 -0.0057284306 0.06039389 -0.006811264 0.06272275 -0.08972165
0.060016382 0.08399174 -0.052372795 -0.009489464 -0.043052044 -0.076566435 -0.021201342 -0.055806693
-0.007861077 -0.033998083 0.028553916 0.000601464 -0.019888159 -0.042342994 0.07744786 -0.000322807
-0.028750686 0.02255729 -0.033470027 0.084604144 0.01394788 0.0024975115 0.05315421 -0.0077701733
00000000: 82af 23bd 09e4 fdbd f798 b6bd 0864 44bd
00000010: 9ec2 0bbd ead2 c7bd 67ba b73c ece1 3c3d
00000020: 7764 33bd e25f 08bd 8518 033d 7e86 0b3d
00000030: 7530 f1bc b0b0 60bc 4469 0abd 7e9a 82bd
00000040: 82f8 f5bd d41a dabd e38c ffbc 41b1 6ebc
00000050: c382 813b 0ea2 89ba 823f 623d d1aa 45bd
00000060: f5a9 bbbd b043 d0bd c214 b4bd 3c18 3bbc
00000070: d64e 5c3d 4235 d1bc 3112 b23c f74e 4f3d
00000080: 97e8 463d 4ab3 b03c 04b2 153c b35e 4dbd
00000090: 1972 83bd 3248 8d3b 4687 173d e3ef 34bd
000000a0: 6459 eabd 5418 82bd 3f46 16bd 48c0 b7bd
000000b0: e8ce b5bc d818 6b3d 99a5 44bc 9f6d 743c
000000c0: 8e1f 77bd 9feb 01bd 0751 bd3b 0817 6dbd
000000d0: 46ce cd3c ce83 4ebd 42c2 9ebb 986a 0bbe
000000e0: 32f7 3f3d 08e6 573d 6cdd 6fba be5c 5abd
000000f0: 6003 b8ba 492c b93c d5df a53d 281c e9bc
00000100: 7042 7eba 27bf afbc f602 2b3d 82b5 823c
00000110: 993f e03c 9676 3b3c d184 813d c82d 3fbc
00000120: b2de 36bd 288b ccbd 66e2 36bd 4e8b 91bd
00000130: 5186 a4bc 680b bfbb 40c3 5ebc d238 423c
00000140: 8548 babd 74d8 53bd 0517 33bc 7648 6bbc
00000150: 72d2 49bd 0eb9 d63c 541e 76bd 7d53 6b3d
00000160: bfe7 933d 193b fdbc c67a 093d 68cf 22bd
00000170: fbb1 4fbd 7498 d1bd 529e dcbb 92da 74bd
00000180: ed13 8f3d 83d0 9cbc 8e14 e7bd 7034 2b3c
00000190: 9c1a 88bd d5e3 173d a92e c0bd 487e 7bbc
000001a0: 37a3 383d 274a 67bd 767c a53d 6b3c 873d
000001b0: c7b7 40bd 6c8d df3c 118b ce3a 3d18 22bd
000001c0: 0133 683c 3d44 9d3d 3293 3c3c bcd8 6abd
000001d0: 77c8 debd 100c 3fbd b4b0 cabc 5241 3cbd
000001e0: b71a 6e3c 40f6 173c f472 b03c 8758 533d
000001f0: 0267 6bba afa6 223c cfe9 c4bc 03cb a7bd
00000200: 2a96 47bc c618 753d c569 573d b725 5ebd
00000210: 038b a43b a0ca 373d 3983 f4bd 00c4 7dbc
00000220: 5a79 293d e06c f5bc 099f 9d3c 63ac 8cbd
00000230: 76e0 9e3c 5b3c dd3c 63b0 2c3c 6cc4 983c
00000240: 0b24 883d bb34 58bd 31d3 723d 0daf 06bd
00000250: 321f fdbd 98c0 723c 28d7 4d3d 4e8c 803d
00000260: eafb 80bd 4b56 663c d525 053d f257 623d
00000270: ad32 b43d 2db0 af3c 1f73 a0bc 250f b5bd
00000280: c5c3 30bd 2b14 38bd 4a91 9239 b2cd 723d
00000290: 4327 a9bc c683 1dbe f35c e7bd 6728 90bc
000002a0: 3f37 a23d 0582 8a3c 65fd 3ebc 20f5 0cbd
000002b0: 1163 163c 2790 70bc 00cb 4bbd cb59 33bd
000002c0: 833d 58bd fb31 3a3d 397a 37bc b500 72bd
000002d0: 66d6 a2bb bafa ec3c 2850 adbc 87be 52bd
000002e0: b3d4 d5bd 1bc7 413c a8e7 99bd 9ba9 33bd
000002f0: c07b 5bbc b416 893d 62f8 2fbd 82fd 8f3c
00000300: e45d fa3d 8e3d 15bd 8702 1c3d c213 0f3d
00000310: 24cf cebc 2c6c 3d3d 3641 85bd 9e81 0ebd
00000320: 8763 86bc 1ba7 15bd 4eda 3fbc 8137 c7bc
00000330: 375a 42bd d4d5 7e3b 6143 d4bc 60d5 4537
00000340: 33e5 8ebd 1069 0bbd 0081 eabc aa1d babc
00000350: 163a 9ebc 1b2a 90bc 0bc5 52bd a89d 3a3d
00000360: f9c3 843d 6dba d63c 77b6 6f3b ae37 2dbd
00000370: 7ebb 713d a962 47bd 1255 6cbc 5d56 07bc
00000380: e7ed c7bd b59a 85bd d04c e6bd 8fb5 bbbb
00000390: 955f 773d 0631 dfbb c974 803d fcbf b7bd
000003a0: bdd3 753d dd03 ac3d db84 56bd b279 1bbc
000003b0: 5757 30bd ddce 9cbd 70ae adbc 8f95 64bd
000003c0: bfcb 00bc 9341 0bbd e7e9 e93c 91ab 1d3a
000003d0: 7eec a2bc d96f 2dbd fc9c 9e3d 6c3e a9b9
000003e0: 8f86 ebbc 11ca b83c de17 09bd f044 ad3d
000003f0: a685 643c 4aad 233b 3bb8 593d f09c febb

decoder.decoder_conv.0.bias f4 [16]
-5.181878e-07 -4.8251445e-06 -4.8652428e-06 4.1623924e-05 6.7895335e-06 4.6231777e-05 -5.7068166e-05 -8.588422e-07
-8.475805e-05 -0.0001683215 1.3461342e-05 8.464883e-05 -2.1593347e-05 2.0746076e-05 2.0067353e-05 -0.00027699262
00000000: 9819 0bb5 ade7 a1b6 1e40 a3b6 5995 2e38
00000010: a6d1 e336 fee8 4138 7a5c 6fb8 308b 66b5
00000020: 22c0 b1b8 757f 30b9 06d8 6137 7f85 b138
00000030: 5c23 b5b7 dc07 ae37 5056 a837 5239 91b9

decoder.decoder_conv.1.weight f4 [16]
0.8380044 0.8492445 0.8673665 1.0038626 0.9214307 0.96110964 1.0003192 0.93282104
0.8417106 1.0109366 0.85727376 1.0410986 0.81817114 0.8411694 0.94664615 1.0645459
00000000: 7587 563f 1668 593f bb0b 5e3f 927e 803f
00000010: e2e2 6b3f 480b 763f 760a 803f 5ccd 6e3f
00000020: 597a 573f 5f66 813f 4b76 5b3f b842 853f
00000030: aa73 513f e156 573f 6757 723f 0a43 883f

decoder.decoder_conv.1.bias f4 [16]
-0.16589662 -0.15111725 -0.031295083 0.14065264 -0.01635972 -0.23781024 0.081377186 0.042651646
-0.14337228 -0.119325496 -0.03985179 -0.10531607 -0.0655203 -0.09808134 0.055443007 -0.07015304
00000000: cee0 29be 7bbe 1abe 462f 00bd 3f07 103e
00000010: d204 86bc 8784 73be 15a9 a63d 7eb3 2e3d
00000020: 2fd0 12be ed60 f4bd a13b 23bd f4af d7bd
00000030: 822f 86bd dfde c8bd 3518 633d 66ac 8fbd

decoder.decoder_conv.1.running_mean f4 [16]
0.020731669 -0.01749625 -0.05038372 -0.059790216 -0.05769288 -0.013026326 -0.052754868 -0.06599601
-0.0039388784 0.013389948 -0.05092588 0.019864123 -0.020173598 -0.031365145 -0.06751923 -0.0026233415
00000000: 76d5 a93c 4c54 8fbc 295f 4ebd 96e6 74bd
00000010: 5f4f 6cbd 5f6c 55bc 7d15 58bd eb28 87bd
00000020: b511 81bb 8361 5b3c a897 50bd 16ba a23c
00000030: 1a43 a5bc bd78 00bd 8647 8abd 5eec 2bbb

decoder.decoder_conv.1.running_var f4 [16]
0.004094217 0.004616138 0.00772308 0.006659205 0.007646217 0.0025953113 0.005478873 0.007925934
0.0048850803 0.0033005525 0.023837235 0.0027093124 0.0064034034 0.009550429 0.008726727 0.0024192638
00000000: c828 863b f942 973b e411 fd3b 7635 da3b
00000010: 1e8d fa3b 1916 2a3b 1e88 b33b c7db 013c
00000020: 0613 a03b 154e 583b 4e46 c33c b88e 313b
00000030: a4d3 d13b 6779 1c3c 8cfa 0e3c 838c 1e3b

decoder.decoder_conv.3.weight f4 [16, 8, 3, 3]
-0.018720904 -0.011778609 -0.00025998545 -0.0039808513 0.08910591 0.096366026 -0.062695816 -0.028031334
-0.00896554 -0.059971843 -0.05489445 -0.09844545 0.11553929 -0.037474275 -0.009859703 -0.087554395
-0.08857911 0.05265756 -0.06252993 -0.033563793 0.048143536 -0.14293352 -0.117836066 0.02715906
0.003930514 -0.045825195 -0.062276714 -0.012670214 0.0038550894 -0.02515477 0.00047683 0.057369422
0.065436676 -0.04578917 -0.008193343 0.02090176 0.061261613 -0.057370357 -0.053330522 0.017771946
0.066164255 -0.033697158 0.0616878 -0.026752597 -0.039433688 -0.027175417 -0.038795944 -0.019767495
0.08748957 -0.08699168 -0.092512555 0.0074863182 -0.0034620329 0.016774017 -0.020314973 -0.19120409
0.08850084 -0.021770969 -0.120978415 -0.070113294 -0.040351547 -0.11354949 -0.055027984 -0.04026832
0.088180766 -0.055104565 -0.022553226 0.046824303 -0.053654153 0.061610237 0.015533231 -0.10406477
0.03236254 -0.0067423824 0.06674491 -0.102214694 -0.12956567 -0.066877455 -0.012120558 -0.019162184
0.024992215 0.047544517 0.0615475 0.06636803 -0.038670883 -0.09830246 0.017089348 0.0542086
-0.055636246 0.024545664 0.063791126 -0.07222657 -0.012068574 0.09168495 -0.020426458 0.0045527476
0.0035702377 0.0043638963 0.06447486 -0.0043031126 0.048207574 0.06627169 -0.097669646 -0.08101391
-0.051875163 -0.0011753559 -0.056241516 0.022684043 -0.006081493 -0.022937853 0.08697334 -0.024586124
-0.020834384 -0.047966953 0.07814289 0.071593694 -0.13844773 -0.010452642 0.116049305 -0.04313807
-0.07766227 0.06030219 -0.008913704 -0.025772782 -0.0615581 0.014359294 -0.056433327 0.11728061
-0.069303066 0.01233053 0.060213435 0.038716525 0.0049004196 -0.0334257 -0.006303825 0.08333115
-0.037519686 0.00056767656 0.16374388 0.0894312 -0.0528016 0.008119368 0.014846735 -0.009685451
-0.0108857285 -0.04529984 0.057456244 0.010178515 0.1517029 0.023231352 0.06081628 0.13170278
0.007983519 -0.00049005426 0.0156045575 -0.022770911 -0.010030999 0.0015051562 -0.1168413 -0.029616423
-0.0115433205 0.07219621 0.16045034 -0.15865429 0.106601536 0.028510038 0.030109268 0.09487554
0.0005713545 0.04337191 0.0032109849 -0.035948463 -0.0041551027 0.03974273 -0.022749906 0.060070466
-0.010697287 0.041446097 0.098831125 0.009158288 0.015089102 0.11890765 -0.0012178567 -0.059853423
0.016423944 -0.009749009 0.013878956 0.025231907 0.016878776 -0.016275529 -0.036392186 -0.03972284
0.097889476 0.0039003694 0.038347118 -0.07077427 -0.034326833 0.009714373 -0.053851295 -0.093614146
-0.034515426 0.00067536434 -0.08281843 -0.03515677 -0.03419709 -0.052964266 -0.056430437 0.1658296
-0.03336557 -0.011333385 0.058198784 -0.09931311 -0.0059088846 0.02182012 0.0741016 -0.024964748
0.07106329 -0.019594347 -0.003971123 -0.043643486 0.0011987584 0.09711274 -0.08309017 -0.012576571
0.038508408 -0.026829131 -0.061239187 -0.055689946 0.05920461 -0.07430267 0.047911596 -0.0027550026
-0.054060448 -0.03575292 0.05979726 -0.13138637 0.0698487 0.046193812 -0.23750734 -0.002552702
0.0781578 -0.14778261 0.19532813 0.05905766 0.0013751006 0.011450146 -0.006389955 0.0040142247
0.08491019 -0.051142663 -0.003499386 0.023884507 -0.015804157 0.045109954 0.041385297 -0.11175885
00000000: 955c 99bc 11fb 40bc a84e 88b9 cd71 82bb
00000010: 297d b63d 8d5b c53d aa66 80bd f8a1 e5bc
00000020: 33e4 12bc 09a5 75bd 01d9 60bd c59d c9bd
00000030: dd9f ec3d a07e 19bd 978a 21bc b84f b3bd
00000040: f768 b5bd 74af 573d b10f 80bd 307a 09bd
00000050: 2832 453d 2a5d 12be 0954 f1bd ad7c de3c
00000060: 8bcb 803b 33b3 3bbd de15 7fbd bb96 4fbc
00000070: aba5 7c3b 6011 cebc 0aff f939 33fc 6a3d
00000080: aa03 863d 6d8d 3bbd 5f3d 06bc 2b3a ab3c
00000090: 75ed 7a3d 2efd 6abd 1b71 5abd 7996 913c
000000a0: 2081 873d 0806 0abd 59ac 7c3d 4328 dbbc
000000b0: 3885 21bd fb9e debc 7fe8 1ebd 71ef a1bc
000000c0: bb2d b33d b228 b2bd 3977 bdbd ca4f f53b
000000d0: 46e3 62bb aa69 893c 966b a6bc 01cb 43be
000000e0: ee3f b53d 0859 b2bc 88c3 f7bd 8f97 8fbd
000000f0: aa47 25bd a38c e8bd 0665 61bd 65f0 24bd
00000100: 1e98 b43d 53b5 61bd 8bc1 b8bc d7ca 3f3d
00000110: 75c4 5bbd 045b 7c3d 187f 7e3c e91f d5bd
00000120: 958e 043d 34ef dcbb 8eb1 883d f055 d1bd
00000130: ddac 04be 0cf7 88bd 4e95 46bc 03fa 9cbc
00000140: 79bc cc3c 0abe 423d 3b19 7c3d f6eb 873d
00000150: 5c65 1ebd cd52 c9bd f6fe 8b3c d609 5e3d
00000160: d5e2 63bd fd13 c93c eca4 823d 86eb 93bd
00000170: 45bb 45bc 52c5 bb3d 6355 a7bc 372f 953b
00000180: a6fa 693b 04ff 8e3b 650b 843d 2001 8dbb
00000190: 4e75 453d 74b9 873d 0607 c8bd 9fea a5bd
000001a0: 0d7b 54bd 660e 9aba 815d 66bd e3d3 b93c
000001b0: 4347 c7bb 2ae8 bbbc 141f b23d d768 c9bc
000001c0: dfac aabc ff78 44bd 6109 a03d b79f 923d
000001d0: 3ec5 0dbe 8f41 2bbc 42ab ed3d 8bb1 30bd
000001e0: 650d 9fbd 6eff 763d c90a 12bc 7121 d3bc
000001f0: 5924 7cbd 3f43 6b3c a226 67bd d130 f03d
00000200: c4ee 8dbd fe05 4a3c 5da2 763d 3895 1e3d
00000210: b393 a03b 63e9 08bd 5190 cebb 86a9 aa3d
00000220: 3eae 19bd 21d0 143a 7aac 273e b427 b73d
00000230: 7e46 58bd 1907 053c b83f 733c baaf 1ebc
00000240: 0e5a 32bc 538c 39bd 3d57 6b3d c9c3 263c
00000250: 0158 1b3e ad4f be3c 7e1a 793d 18dd 063e
00000260: 4ecd 023c fc76 00ba 42aa 7f3c 108a babc
00000270: 0f59 24bc a948 c53a 7e4a efbd 249e f2bc
00000280: 3220 3dbc 9bdb 933d 184d 243e 4576 22be
00000290: e851 da3d e28d e93c b6a7 f63c 1b4e c23d
000002a0: f4c6 153a bea6 313d 636f 523b b23e 13bd
000002b0: 8727 88bb 46c9 223d 035e babc 730c 763d
000002c0: ac43 2fbc 62c3 293d f967 ca3d a50c 163c
000002d0: 4838 773c db85 f33d 7da0 9fba dd28 75bd
000002e0: 828b 863c 4fba 1fbc 9064 633c 25b3 ce3c
000002f0: 5c45 8a3c 4254 85bc f90f 15bd 6bb4 22bd
00000300: 477a c83d 579d 7f3b de11 1d3d 1af2 90bd
00000310: 4b9a 0cbd 0929 1f3c 2d93 5cbd c6b8 bfbd
00000320: 0c60 0dbd ef0a 313a b69c a9bd 8c00 10bd
00000330: 3f12 0cbd 0ff1 58bd 9a23 67bd 3ccf 293e
00000340: 56aa 08bd a9af 39bc d961 6e3d ac64 cbbd
00000350: 519f c1bb 1cc0 b23c 94c2 973d df82 ccbc
00000360: a189 913d 5384 a0bc 3220 82bb 83c3 32bd
00000370: a81f 9d3a 0be3 c63d 2e2b aabd f60d 4ebc
00000380: feba 1d3d c4c8 dbbc f1d5 7abd 241b 64bd
00000390: 8880 723d 002c 98bd f33e 443d 468d 34bb
000003a0: 7d6e 5dbd a771 12bd f9ed 743d 268a 06be
000003b0: d60c 8f3d b935 3d3d 2035 73be 3c4b 27bb
000003c0: 3211 a03d 5354 17be 1904 483e 72e6 713d
000003d0: b83c b43a 6599 3b3c d462 d1bb c289 833b
000003e0: 65e5 ad3d f87a 51bd f455 65bb 71a9 c33c
000003f0: b877 81bc 37c5 383d a183 293d d3e1 e4bd

decoder.decoder_conv.3.bias f4 [8]
-0.00018189705 -8.276829e-06 3.0033027e-06 -8.443112e-05 1.1196202e-06 1.1486153e-05 -9.931127e-06 8.947574e-06
00000000: 9ebb 3eb9 b6dc 0ab7 598c 4936 9d10 b1b8
00000010: db45 9635 a7b4 4037 de9d 26b7 8a1d 1637

decoder.decoder_conv.4.weight f4 [8]
1.2472389 1.2041806 1.3361479 1.1595539 1.4109312 1.3986903 1.2448946 1.2636094
00000000: 86a5 9f3f 9722 9a3f e506 ab3f 436c 943f
00000010: 6599 b43f 4908 b33f b558 9f3f f4bd a13f

decoder.decoder_conv.4.bias f4 [8]
0.010413056 0.30952638 0.32750815 -0.08585636 0.43259743 0.40520698 0.23135206 0.25010446
00000000: 869b 2a3c 3e7a 9e3e 26af a73e 76d5 afbd
00000010: 697d dd3e 4a77 cf3e 8ee7 6c3e b10d 803e

decoder.decoder_conv.4.running_mean f4 [8]
0.17328052 -0.19304585 0.22044581 0.13863878 -0.22970873 -0.23252842 -0.17266077 -0.047381796
00000000: 7370 313e d0ad 45be 8cbc 613e 53f7 0d3e
00000010: c438 6bbe ee1b 6ebe fccd 30be 6a13 42bd

decoder.decoder_conv.4.running_var f4 [8]
0.054247413 0.075133 0.1018186 0.03690814 0.08836206 0.15213344 0.066691175 0.1172101
00000000: 8932 5e3d 55df 993d 4586 d03d fd2c 173d
00000010: 2bf7 b43d dec8 1b3e 6295 883d d90b f03d
